assignment2_coding/results/q4_linear/model.weights.pt (torch, 1535 bytes, 2 tensors)

weight f4 [5, 25]
-0.52614796 0.4991545 0.55888206 1.224345 -0.1954378 -0.2590174 0.5942219 0.9922698
-1.2919436 -0.49389705 0.31078276 -0.98991483 -0.26934373 -0.85485375 -0.6216106 -0.124696
0.71776724 -0.52057326 0.9655906 -0.59235847 0.88516796 -0.0013535782 0.94672775 -0.83683366
-0.5656888 1.5578502 -1.1445323 -1.0352498 -1.7806336 -1.6915358 1.2619021 -1.0346348
0.6120935 0.28293017 0.81601286 -0.57066953 0.77310354 -0.66719323 2.1752656 0.4654759
1.839734 -1.3164358 1.3067615 -0.8209182 1.1535674 -1.9676101 0.784956 -2.5715373
0.0043920716 1.8748891 -0.1129134 -0.4713809 -0.22995847 0.041452408 -0.26897526 -1.0804089
0.50258005 0.0058871564 -0.5419165 -0.71210235 1.2917409 -1.4887477 -0.7619399 -0.45478335
-0.35972655 0.64310664 -0.95122147 1.1184763 -0.10904697 0.8516302 -0.27458304 0.6078932
-0.3197818 0.008017681 0.68508184 1.1344461 -1.340313 -0.374325 -0.5653725 -0.6217975
0.2691942 -0.88751286 0.46318674 0.8383396 -0.6939178 0.5530629 -0.07769623 -0.95906436
1.553378 0.2420035 1.4033566 -0.8685938 0.5323481 -0.12417427 0.40719837 -1.9043932
0.55810785 -1.727171 0.13140057 1.433828 0.3373301 -0.6095147 -0.17893308 -0.5889268
-1.7147908 -0.57797086 -0.36671793 0.32813928 0.5576377 -0.7025321 0.9966098 -0.63355213
-0.70542645 0.22501357 0.35102996 0.74322337 -0.7534357 1.0300176 -0.5142942 1.1615951
-0.8101651 0.9023932 -0.74130285 -0.2701198 0.40747654
00000000: a2b1 06bf 2e91 ff3e e512 0f3f 56b7 9c3f
00000010: d920 48be ee9d 84be ed1e 183f 6505 7e3f
00000020: 685e a5bf 13e0 fcbe eb1e 9f3e 0f6b 7dbf
00000030: 6ce7 89be b2d7 5abf df21 1fbf 9e60 ffbd
00000040: 98bf 373f 4a44 05bf f230 773f cea4 17bf
00000050: 5e9a 623f 8c6a b1ba c05c 723f bb3a 56bf
00000060: fbd0 10bf a367 c73f 0980 92bf 1183 84bf
00000070: cdeb e3bf 3f84 d8bf 0286 a13f ea6e 84bf
00000080: 29b2 1c3f 39dc 903e 38e6 503f 6617 12bf
00000090: 1dea 453f 2dcd 2abf 8d37 0b40 db52 ee3e
000000a0: 677c eb3f f880 a8bf f643 a73f b227 52bf
000000b0: 19a8 933f a6da fbbf e0f2 483f 1194 24c0
000000c0: 5eeb 8f3b 5efc ef3f 243f e7bd d658 f1be
000000d0: 3c7a 6bbe 00ca 293d 20b7 89be d74a 8abf
000000e0: 16a9 003f 0ce9 c03b 0abb 0abf 574c 36bf
000000f0: c457 a53f 498f bebf 7e0e 43bf 5dd9 e8be
00000100: 142e b8be a3a2 243f 4083 73bf 3b2a 8f3f
00000110: 0554 dfbd 7004 5a3f 2696 8cbe e49e 1b3f
00000120: 71ba a3be 975c 033c 8661 2f3f 8835 913f
00000130: 608f abbf 87a7 bfbe 41bc 10bf 1f2e 1fbf
00000140: d2d3 893e 0b34 63bf d026 ed3e 6d9d 563f
00000150: 99a4 31bf 8895 0d3f 331f 9fbd 3e85 75bf
00000160: 17d5 c63f c4cf 773e 30a1 b33f 2a5c 5ebf
00000170: f747 083f 144f febd 4e7c d03e 28c3 f3bf
00000180: 28e0 0e3f f013 ddbf df8d 063e ad87 b73f
00000190: 88b6 ac3e 2809 1cbf 3c3a 37be e8c3 16bf
000001a0: 447e dbbf e6f5 13bf 74c2 bbbe df01 a83e
000001b0: 58c1 0e3f 25d9 33bf d221 7f3f 7930 22bf
000001c0: d496 34bf f569 663e 33ba b33e e343 3e3f
000001d0: 29e1 40bf 9ed7 833f c9a8 03bf 26af 943f
000001e0: fb66 4fbf 3e03 673f 06c6 3dbf 244d 8abe
000001f0: c4a0 d03e

bias f4 [5]
5.1879816 3.4518595 5.049851 4.151823 5.0701957
00000000: f203 a640 44eb 5c40 6198 a140 bcdb 8440
00000010: 0b3f a240
